LSTM_classifier/LSTM_classifier.pth (torch, 799068 bytes, 7 tensors)

weight f4 [3208, 50]
-0.5640997 0.3174707 2.3549302 -0.28419366 -0.71956927 -1.950124 -0.79915136 -1.172708
1.2718804 -3.36844 -1.0172764 0.50667125 -0.10598978 -1.3692374 -0.8011379 -0.0309235
0.76585656 0.6889907 0.20037265 -0.33145764 -0.7419553 0.59195983 -1.8556134 1.566136
2.332469 -0.18104798 1.8028067 -1.8931285 0.82987124 0.10753833 1.5115031 0.39950186
-1.7750878 -1.4664547 -1.0926551 1.1022291 -0.6088782 0.50552255 0.44296595 -0.31412494
-1.9311792 1.1421005 -0.5429235 -1.1542152 -1.0596652 3.218571 -0.8988185 0.2430796
-2.9949296 -0.7053244 1.8311635 1.1201545 0.68209046 1.2036114 0.04218455 -0.75230837
-1.0809871 -0.015750648 0.52469134 -0.23533356 1.990086 -1.7903913 -0.3566457 1.098733
-0.11497735 1.606475 0.9494123 -0.710243 -0.33088598 -0.14984643 0.45733532 -0.93891007
-0.0043445514 -0.4838344 0.13263951 0.105776265 -0.15120184 0.6298469 -0.9684694 -0.28399774
0.53540176 -0.13328776 -0.6253241 2.891283 0.94706196 0.94662094 -1.1306489 0.8147425
-2.4412673 -1.3932949 2.297695 0.61097753 -0.9798736 0.9736269 0.2530164 -0.5217095
-0.2730178 -0.21009474 0.047455393 -0.017868899 -1.1125716 1.1620593 -0.9494212 1.6060407
0.43099982 0.010979792 -1.1289316 -1.7173989 0.5511538 -0.34402484 -1.1516765 2.3528373
-1.5090429 0.26780692 1.780976 -0.15858935 -2.134298 0.12205949 0.302033 -0.17971677
-0.16428062 0.20393099 -0.977691 -0.53429204 -0.28429163 0.46221247 -0.70071036 0.035187405
1.0067544 -0.8615683 0.04242027 -0.5125879 0.9966146 -0.08727441 -0.5472018 0.41976103
-0.52606094 1.8447629 0.9266595 0.48485485 0.20420139 2.466602 0.7594488 -1.6343354
0.7032508 0.64258975 -0.107468046 0.48296857 0.16385935 -0.06639759 1.2103196 2.7119052
-0.46279758 0.16204378 -1.0902722 0.29007748 0.104991 0.91003525 1.602921 0.2871825
1.2374524 -0.16545911 -0.79267734 0.063933074 0.4649556 -1.0656599 0.027768243 -1.3569818
0.25306353 1.6282108 -0.60720766 -1.2821801 1.8024874 1.6779084 0.4125644 -0.2636623
1.6712974 -0.8722824 0.47797048 -0.32263893 1.6484655 -0.34583703 -0.121009275 1.2037259
-0.07478109 0.4038778 -3.735595 -0.4196722 0.26118314 0.15624441 -2.4000516 0.9275915
1.705539 -1.7315637 -0.06820806 -1.4690859 -1.0513569 0.93288004 -1.1720458 -0.55577916
1.1946793 0.031584 -0.76341504 -0.19370346 0.78168845 -0.090410694 -0.8990367 1.0028377
-0.6894813 0.03577495 -0.44478878 2.369624 -0.023583878 -0.046307445 -0.52284235 -1.4069208
0.7798501 -0.27806956 0.10350424 -0.7105353 0.48863113 -0.8307416 3.2493987e-05 1.4343468
1.0662256 -1.6462741 1.786972 -2.5111022 -2.4008222 -0.70897764 -2.2746902 1.6551396
0.2505277 -0.15615176 -2.2754228 -1.3321772 -0.7432924 -0.27621827 0.4399303 -0.1001037
0.6206036 -0.5261651 -0.9225227 -0.70621336 -0.48366114 0.28285342 -1.1453147 0.8197218
-1.8783274 -0.1071856 0.84196687 -0.026895037 -0.47298846 -0.6058802 -1.6118059 1.0039794
00000000: d768 10bf 858b a23e 2db7 1640 d581 91be
00000010: b135 38bf aa9d f9bf 2f95 4cbf 4c1b 96bf
00000020: facc a23f 8594 57c0 1d36 82bf 35b5 013f
00000030: 2b11 d9bd 2c43 afbf 6017 4dbf 4853 fdbc
00000040: 2d0f 443f b261 303f 7d2e 4d3e d1b4 a9be
00000050: c8f0 3dbf ae8a 173f bd84 edbf 2577 c83f
00000060: 2c47 1540 a464 39be 5fc2 e63f 0952 f2bf
00000070: 7172 543f 0e3d dc3d ef78 c13f 828b cc3e
00000080: 1436 e3bf cab4 bbbf 1fdc 8bbf d815 8d3f
00000090: 71df 1bbf ed69 013f 6fcc e23e fcd4 a0be
000000a0: e130 f7bf 5930 923f 09fd 0abf 53bd 93bf
000000b0: 1ca3 87bf 11fd 4d40 f818 66bf dce9 783e
000000c0: edac 3fc0 2490 34bf 9163 ea3f 3961 8f3f
000000d0: 7b9d 2e3f f00f 9a3f b5c9 2c3d 4897 40bf
000000e0: c95d 8abf 8107 81bc 2c52 063f 48fb 70be
000000f0: 23bb fe3f 8b2b e5bf 449a b6be 48a3 8c3f
00000100: 3f79 ebbd f9a0 cd3f af0c 733f 7cd2 35bf
00000110: e369 a9be 5871 19be db27 ea3e 695c 70bf
00000120: bd5c 8ebb 24b9 f7be a7d2 073e 3aa1 d83d
00000130: a8d4 1abe a53d 213f 9ced 77bf 2768 91be
00000140: 1710 093f 967c 08be 3d15 20bf c80a 3940
00000150: a772 723f c055 723f 1ab9 90bf f792 503f
00000160: b93d 1cc0 7d57 b2bf 6f0d 1340 0669 1c3f
00000170: ffd8 7abf 9d3f 793f 5e8b 813e c18e 05bf
00000180: fdc8 8bbe 1323 57be 9660 423d cc61 92bc
00000190: bf68 8ebf 5cbe 943f 450d 73bf be92 cd3f
000001a0: 02ac dc3e 96e4 333c d580 90bf bad3 dbbf
000001b0: 6a18 0d3f 0624 b0be 236a 93bf e394 1640
000001c0: 5128 c1bf fd1d 893e 06f7 e33f 3f65 22be
000001d0: 5798 08c0 53fa f93d 12a4 9a3e ac07 38be
000001e0: 2e39 28be 49d3 503e f549 7abf 5dc7 08bf
000001f0: ac8e 91be 1da7 ec3e c161 33bf ab20 103d
00000200: 54dd 803f bd8f 5cbf e1c0 2d3d f638 03bf
00000210: 2222 7f3f edbc b2bd 6b15 0cbf ebea d63e
00000220: eeab 06bf 3121 ec3f 8f39 6d3f e53e f83e
00000230: 2b1a 513e cfdc 1d40 3d6b 423f e731 d1bf
00000240: 3f08 343f c380 243f 3518 dcbd a847 f73e
00000250: bfca 273e 76fb 87bd c1eb 9a3f db8f 2d40
00000260: cef3 ecbe ceee 253e 0a8e 8bbf 0985 943e
00000270: 8505 d73d 12f8 683f 842c cd3f 9609 933e
00000280: d764 9e3f 1d6e 29be e7ec 4abf 58ef 823d
00000290: a90e ee3e 8b67 88bf 3a7a e33c 94b1 adbf
000002a0: 8b91 813e 3669 d03f f671 1bbf 7a1e a4bf
000002b0: e8b7 e63f b4c5 d63f a43b d33e bffe 86be
000002c0: 13ed d53f e64d 5fbf 8cb8 f43e ee30 a5be
000002d0: eb00 d33f 8d11 b1be b6d3 f7bd b113 9a3f
000002e0: d426 99bd 12c9 ce3e fd13 6fc0 46df d6be
000002f0: ccb9 853e 89fe 1f3e 729a 19c0 a376 6d3f
00000300: 1a4f da3f e1a3 ddbf abb0 8bbd 020b bcbf
00000310: dd92 86bf 3ad1 6e3f 9905 96bf 8b47 0ebf
00000320: 40eb 983f 395e 013d 2b6f 43bf 335a 46be
00000330: bc1c 483f 3e29 b9bd 4527 66bf fc5c 803f
00000340: d981 30bf c188 123d 5bbb e3be eba7 1740
00000350: fa32 c1bc e0ac 3dbd ffd8 05bf fb15 b4bf
00000360: 42a4 473f 225f 8ebe 08fa d33d a4e5 35bf
00000370: dc2d fa3e 7bab 54bf 274a 0838 ad98 b73f
00000380: 157a 883f 1cb9 d2bf 80bb e43f e6b5 20c0
00000390: 12a7 19c0 8f7f 35bf 8694 11c0 9ddb d33f
000003a0: 2b45 803e 3fe6 1fbe 87a0 11c0 c884 aabf
000003b0: 6948 3ebf 7b6c 8dbe 8b3e e13e 2b03 cdbd
000003c0: e1df 1e3f c2b2 06bf 732a 6cbf 66ca 34bf
000003d0: 6fa2 f7be 2ad2 903e ac99 92bf 4ad9 513f
000003e0: 086d f0bf 2084 dbbd 248b 573f fb52 dcbc
000003f0: 8b2b f2be f71a 1bbf a84f cebf 6682 803f

weight_ih_l0 f4 [300, 50]
-0.0819535 0.22203802 0.23447406 -0.23453924 0.04652091 0.05732866 -0.14030272 -0.05975161
0.06296159 0.01570262 0.23653075 0.040146828 -0.12117987 -0.26090103 0.091171265 -0.18842521
-0.022768598 0.21088552 0.011274916 0.052413337 -0.07616214 0.21891226 -0.16516522 0.17616287
0.16334477 -0.12240251 -0.30494836 0.16354306 -0.038837757 -0.07905219 0.08740284 0.25109512
-0.31678852 -0.06667527 -0.038878363 0.10617398 0.1006899 -0.10039314 0.0029328144 0.07531774
-0.0052736155 0.045481313 0.052082088 -0.05548733 0.07886682 0.2680594 0.13725299 0.14581811
0.07381493 -0.18348281 -0.16878697 0.11449968 -0.22624896 0.18928486 -0.02032701 -0.22865197
-0.11875773 -0.06883972 -0.0143433735 -0.2447187 -0.08992178 0.15096521 0.09041849 -0.44375044
-0.0078070606 -0.15482007 0.024881933 0.012487448 -0.07128841 -0.0028947238 0.13935833 0.0776884
-0.17420888 -0.042045165 -0.007408822 -0.0667662 -0.13231069 -0.07410591 0.02656342 -0.17744757
-0.14139824 0.18839408 0.06019947 -0.06637475 0.017216329 -0.05828727 -0.063465744 -0.038697977
-0.09505672 -0.226784 -0.18347932 0.07953326 -0.12893428 -0.10639456 0.107533805 0.2229522
0.37969208 0.20776466 -0.15142106 -0.12303422 0.091429085 -0.07231259 0.050604973 -0.012274994
0.072976455 -0.18047662 -0.102322705 -0.29915237 0.26026404 -0.0041935924 0.17112714 0.16062482
-0.0019969237 -0.27683762 0.011131421 -0.27249452 0.13615318 0.14221513 0.0010360662 -0.019974958
-0.11378334 0.025530066 -0.11601933 0.30808356 -0.0059264693 0.08024202 -0.1181126 -0.10617807
0.017059645 -0.32666445 -0.036580786 0.26513967 0.01427652 -0.020654574 -0.23659237 -0.039133538
0.22470526 -0.06262889 0.015698407 0.24724776 -0.1680011 -0.068668984 0.005317495 -0.057339966
-0.19324319 0.22800829 0.14014512 0.08786452 0.07340595 0.017976329 -0.23738243 -0.003931396
0.20623006 -0.05194765 0.31259277 -0.12655188 -0.21096523 -0.09044244 0.24892965 -0.21665753
0.11874183 0.2080112 -0.11212522 -0.14199594 0.25725782 -0.1254926 0.15847124 -0.05530473
0.012926559 0.09049103 -0.06246844 -0.0074689477 0.023923656 0.25469282 0.013199745 -0.09336287
-0.06692124 -0.17868325 -0.0148017015 -0.24540041 -0.0052209217 0.3805444 0.060954444 0.10866067
0.21849212 0.11852757 -0.11816014 -0.09097407 0.0056353924 0.1307973 -0.311311 0.1560608
0.07968906 -0.09312819 -0.065666385 0.07551652 0.019824862 -0.07041909 0.10025501 -0.009086571
-0.11404008 -0.09013114 -0.045516346 -0.14956225 0.15688403 0.14162438 0.13870148 0.0015056004
0.12201774 -0.27044374 0.02390568 -0.030098395 0.08868833 -0.2074446 0.013747839 -0.113933735
0.103526786 0.009735279 -0.06120391 0.06811789 0.1311848 0.2145225 0.1537927 0.013609225
-0.21532457 -0.18637618 0.0059197065 0.09034505 0.052118707 -0.08819062 0.10925633 -0.06421879
-0.10650689 -0.013347705 -0.09637933 0.055438362 -0.27860847 -0.062216893 0.04313637 0.12935062
0.038921352 -0.07129332 0.10730798 0.03314134 0.028543364 -0.12259198 -0.09230406 -0.07749712
-0.084758386 0.071928784 -0.13630934 0.01488752 -0.13187835 -0.16421975 0.09640737 0.017279152
00000000: 3dd7 a7bd ef5d 633e f819 703e 0e2b 70be
00000010: b68c 3e3d 75d1 6a3d 84ab 0fbe 1bbe 74bd
00000020: 02f2 803d c8a2 803c 1e35 723e 0071 243d
00000030: 272d f8bd d294 85be 00b8 ba3d 8af2 40be
00000040: 3685 babc 60f2 573e 6dba 383c 5eaf 563d
00000050: e5fa 9bbd 892a 603e 1221 29be 0a64 343e
00000060: da43 273e 2bae fabd 3122 9cbe d577 273e
00000070: 5714 1fbd 1de6 a1bd 4300 b33d 8a8f 803e
00000080: 1b32 a2be 0b8d 88bd eb3e 1fbd be71 d93d
00000090: 8236 ce3d eb9a cdbd 7634 403b 3040 9a3d
000000a0: 4bce acbb 9d4a 3a3d 0754 553d af46 63bd
000000b0: ed84 a13d 153f 893e 0c8c 0c3e 5851 153e
000000c0: 482c 973d ebe2 3bbe 7ed6 2cbe cf7e ea3d
000000d0: cfad 67be e4d3 413e d484 a6bc be23 6abe
000000e0: 4137 f3bd d7fb 8cbd 7800 6bbc 8a97 7abe
000000f0: e928 b8bd a096 1a3e 542d b93d 4233 e3be
00000100: 5fd2 ffbb 2789 1ebe 32d5 cb3c 2798 4c3c
00000110: a8ff 91bd 68b5 3dbb f3b3 0e3e 191b 9f3d
00000120: d063 32be 8d37 2cbd b4c5 f2bb b8bc 88bd
00000130: 747c 07be d7c4 97bd 889b d93c d1b4 35be
00000140: b3ca 10be 61ea 403e b893 763d 7cef 87bd
00000150: 4209 8d3c a2be 6ebd 54fa 81bd c581 1ebd
00000160: 19ad c2bd 113a 68be 01e2 3bbe 55e2 a23d
00000170: 5907 04be 64e5 d9bd af3a dc3d 954d 643e
00000180: 0067 c23e 42c0 543e 1f0e 1bbe 5df9 fbbd
00000190: 2c3f bb3d a018 94bd 2947 4f3d 0e1d 49bc
000001a0: ae74 953d ddce 38be 918e d1bd 802a 99be
000001b0: 5441 853e 676a 89bb f43b 2f3e d57a 243e
000001c0: d2de 02bb a9bd 8dbe 9060 363c 6784 8bbe
000001d0: bd6b 0b3e d8a0 113e 9dcc 873a 86a2 a3bc
000001e0: 3d07 e9bd 6e24 d13c 8b9b edbd 21bd 9d3e
000001f0: d432 c2bb ee55 a43d 05e5 f1bd e373 d9bd
00000200: abc0 8b3c 9040 a7be bcd5 15bd 63c0 873e
00000210: 11e8 693c c833 a9bc 4545 72be 7d4a 20bd
00000220: 2319 663e 9343 80bd f299 803c 842e 7d3e
00000230: 7b08 2cbe 53a2 8cbd 623e ae3b 50dd 6abd
00000240: 8be1 45be 017b 693e 3482 0f3e 50f2 b33d
00000250: dc55 963d 1843 933c 6114 73be f1d2 80bb
00000260: f92d 533e 0fc7 54bd 290c a03e d196 01be
00000270: 4507 58be e339 b9bd 6ae7 7e3e 79db 5dbe
00000280: eb2e f33d e300 553e e8a1 e5bd 6267 11be
00000290: 4cb7 833e 2281 00be 4946 223e 3687 62bd
000002a0: ebc9 533c 5c53 b93d e8de 7fbd 13be f4bb
000002b0: 8bfb c33c 1967 823e be43 583c 0835 bfbd
000002c0: 010e 89bd bef8 36be d682 72bc 3f4a 7bbe
000002d0: 4414 abbb b7d6 c23e 5eab 793d 7c89 de3d
000002e0: 66bc 5f3e 95be f23d f2fd f1bd 9d50 babd
000002f0: 19a9 b83b baef 053e 2864 9fbe 67ce 1f3e
00000300: 0534 a33d feb9 bebd 197c 86bd 68a8 9a3d
00000310: c067 a23c e237 90bd 8052 cd3d d7df 14bc
00000320: d88d e9bd ad96 b8bd 596f 3abd d926 19be
00000330: 35a6 203e fb05 113e c307 0e3e 9157 c53a
00000340: 70e4 f93d 9a77 8abe d8d5 c33c e990 f6bc
00000350: 3aa2 b53d 5b6c 54be 9e3e 613c 1756 e9bd
00000360: da05 d43d b880 1f3c f3b0 7abd 6481 8b3d
00000370: 4f55 063e c9ab 5b3e d57b 1d3e 3af9 5e3c
00000380: 0b7e 5cbe 66d9 3ebe 19fa c13b d306 b93d
00000390: 6d7a 553d 499d b4bd c8c1 df3d 2485 83bd
000003a0: 4920 dabd 55b0 5abc 8762 c5bd 5613 633d
000003b0: c5a5 8ebe 24d7 7ebd c3af 303d 7d74 043e
000003c0: ff6b 1f3d 3b02 92bd 49c4 db3d 37bf 073d
000003d0: c6d3 e93c 8111 fbbd e909 bdbd cfb6 9ebd
000003e0: ce95 adbd 664f 933d ad94 0bbe c9ea 733c
000003f0: 1e0b 07be 3929 28be 3a71 c53d 028d 8d3c

weight_hh_l0 f4 [300, 75]
0.026459504 0.04556542 -0.06680408 -0.04994338 -0.038535833 0.01657038 0.052833654 -0.074500225
0.11971412 -0.1551683 0.026084205 0.12341694 -0.026368815 -0.009442395 0.03966686 0.045194365
0.18125877 -0.12301821 0.07639821 -0.06777045 -0.016781991 0.22806051 -0.06807102 -0.18447454
0.14534305 -0.08588355 0.056960963 0.0034891884 0.017739441 0.016028784 0.097809315 0.06472522
0.31127092 -0.034172982 0.123100564 0.042294998 -0.01565118 0.061363094 0.058999732 0.052507725
-0.18126649 -0.113372475 -0.040869188 0.12353357 -0.078282006 0.08122181 -0.07655082 0.005460178
-0.0044066347 -0.007664258 0.12633435 -0.028404096 -0.1019657 0.10736527 -0.026438903 0.1319549
-0.024773486 0.043222956 -0.02860069 -0.24671811 0.124485746 0.08350316 0.0131110465 0.14318347
-0.19585897 0.015869135 -0.13441323 0.09191065 0.107813135 0.0047630086 0.058159053 -0.050271776
-0.02308655 0.018839613 -0.06942945 0.012398118 -0.1057665 -0.19610396 -0.040323615 0.036073804
-0.03203839 0.036282007 -0.054376017 -0.065540455 -0.018814445 0.13685712 0.07248928 -0.0046603195
0.035086006 -0.071437396 -0.07786999 0.014785106 0.06089852 0.059130494 -0.092918456 -0.0033949136
-0.11820447 0.082858734 -0.13435242 -0.08800818 -0.010126317 -0.04111404 -0.013683547 -0.13907722
-0.17526737 -0.097796716 -0.0758435 0.040054046 0.014794293 0.16556714 0.15383086 -0.08007079
-0.052564707 -0.08311012 0.12972863 0.093085155 0.008921914 -0.008763196 0.1876243 0.040466927
0.110320434 0.15113838 0.102610804 -0.22227275 0.0781598 -0.007941737 -0.14185703 -0.031679906
-0.16107959 -0.046824507 0.06777603 -0.04634156 -0.015685666 -0.0015317604 0.1049324 -0.11348096
-0.042244762 0.11820078 -0.10097018 0.035315152 0.021560734 -0.064310335 0.02261567 -0.13067016
0.008551508 -0.05295017 0.10708799 0.07230736 -0.108472824 0.15378861 0.011624058 -0.11230935
-0.123759694 -0.012059143 -0.21507885 -0.08182766 -0.13044293 -0.08399962 0.111726396 -0.044027064
-0.043646116 0.025710905 -0.07891874 0.03876905 -0.06083252 0.019572683 0.053046416 -0.07391623
-0.07299122 -0.09302081 -0.0268126 -0.13386172 0.016261436 -0.094466545 0.030169891 -0.0064034928
-0.009912987 0.12416759 0.15326503 0.0603832 -0.14080775 -0.10666723 0.17046773 0.25841534
-0.0066707064 0.08827357 -0.073166095 0.12101713 0.010013605 0.04235665 0.028350633 -0.15553197
-0.19865292 0.03408286 -0.1848838 0.08898034 0.048919946 0.15384014 -0.02055077 -0.15461797
-0.002613622 0.05285783 0.22521915 -0.07453752 0.15555796 -0.027145837 -0.14173348 0.11596005
0.12412893 -0.116710976 -0.14036076 0.18799295 0.088153526 0.017251806 -0.09710461 -0.071321495
0.047089834 0.001893428 -0.011995665 0.05774911 -0.13999872 0.2437122 0.072359204 -0.10165839
-0.08967993 -0.051873785 -0.036283284 -0.15835287 -0.187071 -0.14551246 0.06423012 -0.20460159
-0.0043055094 0.011322019 -0.0011363794 0.13527168 0.060572308 0.05980616 -0.11084284 0.14301172
-0.022965463 0.12935159 0.121833496 0.15409596 -0.1619371 0.30133387 -0.015417581 0.21995251
-0.26584402 0.03633277 0.13343467 -0.01673532 0.17489764 -0.002243241 0.22371255 -0.07645281
00000000: 9ac1 d83c cea2 3a3d 94d0 88bd 6e91 4cbd
00000010: c0d7 1dbd 9bbe 873c 1a68 583d 9393 98bd
00000020: ad2c f53d 70e4 1ebe 8bae d53c 05c2 fc3d
00000030: 6a03 d8bc 46b4 1abc b879 223d ba1d 393d
00000040: e69b 393e f9f0 fbbd aa76 9c3d 3ccb 8abd
00000050: 637a 89bc b288 693e d268 8bbd e5e6 3cbe
00000060: cfd4 143e b7e3 afbd e64f 693d deaa 643b
00000070: 4e52 913c cc4e 833c 4050 c83d a88e 843d
00000080: e75e 9f3e f8f8 0bbd 261c fc3d 853d 2d3d
00000090: e736 80bc de57 7b3d b4a9 713d 5712 573d
000000a0: ec9d 39be d42f e8bd 7366 27bd 2bff fc3d
000000b0: 5152 a0bd 9f57 a63d adc6 9cbd 4beb b23b
000000c0: 8865 90bb 7524 fbbb cb5d 013e b5af e8bc
000000d0: 65d3 d0bd 53e2 db3d 6696 d8bc 2f1f 073e
000000e0: c4f1 cabc 8e0a 313d ff4b eabc aca3 7cbe
000000f0: 62f2 fe3d b403 ab3d b7cf 563c b09e 123e
00000100: 418f 48be fdff 813c 9fa3 09be a73b bc3d
00000110: 22cd dc3d 0313 9c3b 3038 6e3d c7e9 4dbd
00000120: 0120 bdbc 8855 9a3c 0731 8ebd 7a21 4b3c
00000130: 1b9c d8bd 7acf 48be 602a 25bd 20c2 133d
00000140: b03a 03bd 719c 143d 63b9 5ebd 133a 86bd
00000150: c020 9abc 4624 0c3e 4275 943d 98b5 98bb
00000160: 58b6 0f3d c54d 92bd 4d7a 9fbd 3b3d 723c
00000170: ba70 793d d132 723d 084c bebd 337d 5ebb
00000180: 2f15 f2bd d7b1 a93d ae93 09be a23d b4bd
00000190: dae8 25bc 3267 28bd f530 60bc 426a 0ebe
000001a0: 4a79 33be a549 c8bd d653 9bbd b60f 243d
000001b0: c363 723c 6f8a 293e d685 1d3e 28fc a3bd
000001c0: 174e 57bd a335 aabd 95d7 043e 6ea3 be3d
000001d0: 382d 123c 8293 0fbc 9620 403e a6c0 253d
000001e0: aeef e13d 05c4 1a3e 9d25 d23d 789b 63be
000001f0: 3f12 a03d 0f1e 02bc f842 11be cac2 01bd
00000200: 0cf2 24be 0ecb 3fbd 29ce 8a3d a6d0 3dbd
00000210: 3a7f 80bc 5ac5 c8ba cce6 d63d b568 e8bd
00000220: d808 2dbd 4013 f23d 74c9 cebd 9fa6 103d
00000230: 23a0 b03c 23b5 83bd 7f44 b93c 66ce 05be
00000240: a01b 0c3c 47e2 58bd f350 db3d e215 943d
00000250: 0027 debd c37a 1d3e d572 3e3c 7202 e6bd
00000260: b975 fdbd b693 45bc a13d 5cbe 4395 a7bd
00000270: d592 05be fe07 acbd cfd0 e43d b955 34bd
00000280: 45c6 32bd ad9f d23c 26a0 a1bd 4ccc 1e3d
00000290: 852b 79bd e456 a03c 3347 593d 6461 97bd
000002a0: 6c7c 95bd b281 bebd 19a6 dbbc 0c13 09be
000002b0: b436 853c ad77 c1bd d926 f73c 64d4 d1bb
000002c0: 156a 22bc 944b fe3d 82f1 1c3e 6054 773d
000002d0: e82f 10be 5974 dabd 188f 2e3e 044f 843e
000002e0: f195 dabb c6c8 b43d 1bd8 95bd d4d7 f73d
000002f0: 1a10 243c 2b7e 2d3d 963f e83c c643 1fbe
00000300: ac6b 4bbe 789a 0b3d 2e52 3dbe 533b b63d
00000310: 4860 483d 4588 1d3e 175a a8bc 2c54 1ebe
00000320: 4d49 2bbb 7481 583d d99f 663e 21a7 98bd
00000330: 964a 1f3e f260 debc 9522 11be 767c ed3d
00000340: 4f37 fe3d 2a06 efbd bbba 0fbe 3981 403e
00000350: d689 b43d a953 8d3c c8de c6bd 0111 92bd
00000360: 45e1 403d e72c f83a 7789 44bc 558a 6c3d
00000370: d35b 0fbe b18f 793e 1031 943d 4632 d0bd
00000380: 1caa b7bd 9b79 54bd c89d 14bd 4127 22be
00000390: 8a8f 3fbe 3801 15be 158b 833d 1483 51be
000003a0: 3b15 8dbb fd7f 393c 91f2 94ba a984 0a3e
000003b0: ab1a 783d 4ef7 743d 9201 e3bd aa71 123e
000003c0: 1122 bcbc be74 043e d783 f93d 55cb 1d3e
000003d0: d7d2 25be 6f48 9a3e 069a 7cbc 3b3b 613e
000003e0: b51c 88be acd1 143d 19a3 083e 8318 89bc
000003f0: 5e18 333e 5703 13bb e714 653e 4a93 9cbd

bias_ih_l0 f4 [300]
0.051874366 -0.052170336 -0.1496064 0.01835811 0.06434638 0.2696117 -0.11764971 -0.09309431
0.010695657 -0.11881041 -0.094884805 -0.17618676 -0.0141551 -0.08578911 -0.08988442 -0.018228533
-0.031067694 -0.047063723 0.0576234 0.10329163 0.009052033 0.038740754 -0.13164009 0.07597599
-0.19037312 -0.09778984 0.058624513 0.04487366 0.031702805 -0.07038706 0.088746145 0.10188369
0.14099729 -0.0023595493 0.33777082 0.17556383 -0.017965505 0.059984922 -0.06531562 0.062172223
0.1498023 -0.005411211 0.13659003 0.21743171 0.048973087 0.072110355 0.109225646 0.09360244
0.11941914 0.064182155 -0.11762049 0.46566153 -0.021394948 0.0060319523 0.048999242 -0.11826106
0.09588217 -0.0067257164 -0.116420746 0.060490523 -0.09437152 -0.09173645 0.026448168 0.08969914
-0.11125138 0.012021292 0.05893914 0.22786586 -0.014804929 -0.022863759 -0.16923341 0.24448827
0.07835621 -0.080085054 0.13157903 0.015294733 0.16077214 0.036188696 0.0780724 0.104472324
0.09637041 -0.016386505 0.046256404 -0.052716672 -0.041121785 0.26815346 0.14848688 0.12997535
0.0069012577 0.14153393 0.052881103 0.13331181 0.18091942 0.04247726 0.07060353 -0.022728486
0.12760252 -0.152443 0.24817182 0.031719163 0.06854119 0.09627033 -0.042768896 0.040416412
0.03176341 0.12375588 0.32737592 0.10162465 0.1253623 -0.017583992 0.15156238 -8.242142e-05
0.027573166 0.05279094 -0.038039494 0.11723899 -0.11452346 0.13108763 0.092521586 -0.13498196
0.1482234 0.11137912 -0.10570576 0.07753496 0.08692178 0.10576359 0.20287903 0.18896271
0.041191325 0.13774206 0.248502 0.017085224 0.18638873 -0.046414405 0.18872222 -0.0314987
0.10389867 0.082495205 0.08184974 -0.16394855 0.15141948 0.17521128 -0.16783762 0.15540062
0.033956755 0.09566217 -0.114481516 0.069738336 0.01288503 -0.0022020717 -0.05674252 -0.0015292912
0.021902129 -0.03627724 0.14423694 -0.13362445 -0.09126437 0.017804822 0.043971427 -0.046574447
-0.007674499 0.02085668 0.08331978 0.035740085 0.077409536 -0.02056527 0.0007908161 0.1290857
0.022605773 0.010997166 -0.03196468 0.09255175 0.003236086 -0.10963863 0.1262461 0.085107766
-0.16611671 0.03489833 0.09833385 0.2012862 -0.12673895 0.058404557 0.20190245 -0.20919953
-0.09738864 -0.08774257 -0.107179485 0.040096086 -0.06509971 -0.010508729 0.21498491 -0.008819955
0.12049496 0.16267233 -0.12601577 0.03281928 -0.07327907 -0.1172015 -0.03617988 0.15327674
0.05293941 0.12884825 0.041228686 0.11437641 0.018956823 -0.02634883 -0.08573284 -0.038638532
0.11712034 -0.046673406 0.08388982 0.18486677 0.1695591 -0.014201196 -0.080771804 -0.09438292
0.0598341 0.010645152 -0.022961749 0.024582185 -0.014229449 -0.079179205 0.06861141 -0.027367866
-0.16818705 0.028139932 0.09851854 0.12766911 0.1615778 -0.1146322 0.23846102 0.1287063
0.06990918 -0.014402666 -0.0017283065 0.09355602 -0.02657232 0.088754095 0.027512727 -0.10349429
-0.014299861 0.10550658 0.19076249 0.05015985 0.07088446 0.090645865 0.096889585 0.020018313
0.070204444 -0.16800636 -0.118887484 0.22100858 0.20181023 -0.0034367514 -0.08245378 0.1424711
00000000: 377a 543d 90b0 55bd 6c32 19be bf63 963c
00000010: 09c8 833d 8b0a 8a3e 55f2 f0bd 3ba8 bebd
00000020: d63c 2f3c df52 f3bd f752 c2bd 4d6a 34be
00000030: cbea 67bc 33b2 afbd 5315 b8bd 0154 95bc
00000040: ad81 febc e4c5 40bd 8406 6c3d 908a d33d
00000050: fa4e 143c a0ae 1e3d a9cc 06be 4d99 9b3d
00000060: 2cf1 42be 0a46 c8bd 4220 703d 71cd 373d
00000070: cdda 013d 1727 90bd 8ac0 b53d 65a8 d03d
00000080: 9861 103e aba2 1abb 4cf0 ac3e 01c7 333e
00000090: 652c 93bc c0b2 753d 32c4 85bd 4da8 7e3d
000000a0: c665 193e 8750 b1bb 42de 0b3e 6ba6 5e3e
000000b0: 0198 483d 98ae 933d b2b1 df3d a3b2 bf3d
000000c0: 0692 f43d ef71 833d 03e3 f0bd 306b ee3e
000000d0: 7544 afbc afa7 c53b 6eb3 483d db32 f2bd
000000e0: df5d c43d 6663 dcbb 006e eebd e9c4 773d
000000f0: db45 c1bd 52e0 bbbd d4a9 d83c 2fb4 b73d
00000100: c3d7 e3bd f4f4 443c 2b6a 713d ab55 693e
00000110: 5f90 72bc c74c bbbc 864b 2dbe 225b 7a3e
00000120: 3879 a03d a203 a4bd a7bc 063e c396 7a3c
00000130: 74a1 243e 993a 143d 6ce4 9f3d 96f5 d53d
00000140: d95d c53d fe3c 86bc 5b77 3d3d 70ed 57bd
00000150: 516f 28bd 694b 893e f20c 183e 4218 053e
00000160: f223 e23b 45ee 103e db99 583d e482 083e
00000170: f142 393e a3fc 2d3d 9598 903d 1731 babc
00000180: 3caa 023e 051a 1cbe c120 7e3e f4eb 013d
00000190: 535f 8c3d 6129 c53d 702e 2fbd ae8b 253d
000001a0: 591a 023d b973 fd3d d19d a73e 9620 d03d
000001b0: fa5e 003e 4e0c 90bc 2b33 1b3e aad9 acb8
000001c0: 1fe1 e13c 503b 583d 4dcf 1bbd ff1a f03d
000001d0: 478b eabd d63b 063e f57b bd3d b638 0abe
000001e0: e0c7 173e bc1a e43d 437c d8bd a6ca 9e3d
000001f0: 0c04 b23d 959a d83d 85bf 4f3e 717f 413e
00000200: 3cb8 283d 410c 0d3e 4f77 7e3e 50f6 8b3c
00000210: b0dc 3e3e 081d 3ebd 6640 413e c804 01bd
00000220: d3c8 d43d 3ff3 a83d d6a0 a73d 21e2 27be
00000230: b50d 1b3e 966a 333e a0dd 2bbe 5721 1f3e
00000240: 3d16 0b3d 87ea c33d 4975 eabd f9d2 8e3d
00000250: bc1b 533c a250 10bb d86a 68bd 7f72 c8ba
00000260: 186c b33c 7197 14bd d9b2 133e d9d4 08be
00000270: d0e8 babd 6bdb 913c 621b 343d d9c4 3ebd
00000280: 5d7a fbbb a1db aa3c 90a3 aa3d 3264 123d
00000290: e488 9e3d 7f78 a8bc c54e 4f3a 0b2f 043e
000002a0: be2f b93c 752d 343c 65ed 02bd c68b bd3d
000002b0: 8414 543b 388a e0bd a846 013e fb4c ae3d
000002c0: 801a 2abe 8df1 0e3d 4263 c93d f81d 4e3e
000002d0: dbc7 01be 9e39 6f3d 84bf 4e3e 6738 56be
000002e0: b273 c7bd 60b2 b3bd eb80 dbbd cb3b 243d
000002f0: ff52 85bd ce2c 2cbc 0125 5c3e 9381 10bc
00000300: 10c6 f63d 9393 263e 470a 01be 826d 063d
00000310: 5613 96bd 5707 f0bd 5b31 14bd 94f4 1c3e
00000320: ffd6 583d ccf0 033e 69df 283d 2e3e ea3d
00000330: 574b 9b3c 80d9 d7bc b394 afbd 7043 1ebd
00000340: cadc ef3d 9d2c 3fbd 6dce ab3d b74d 3d3e
00000350: e7a0 2d3e 22ac 68bc b06b a5bd d54b c1bd
00000360: 9a14 753d 0169 2e3c 471a bcbc 9460 c93c
00000370: a322 69bc b528 a2bd 2484 8c3d 9332 e0bc
00000380: 3a39 2cbe b785 e63c 17c4 c93d b1bb 023e
00000390: a774 253e 49c4 eabd 202f 743e 96cb 033e
000003a0: 8b2c 8f3d 29f9 6bbc 5888 e2ba 4c9a bf3d
000003b0: 32ae d9bc b5c4 b53d 5f62 e13c d0f4 d3bd
000003c0: f749 6abc d513 d83d 3e57 433e 6a74 4d3d
000003d0: df2b 913d 8aa4 b93d 0c6e c63d 72fd a33c
000003e0: 59c7 8f3d dc09 2cbe 487b f3bd 1350 623e
000003f0: 57a7 4e3e 1f3b 61bb 87dd a8bd f2e3 113e

bias_hh_l0 f4 [300]
0.17393515 0.030670583 -0.099393055 0.026685325 0.051168885 0.30524567 -0.010624443 -0.09911429
-0.031048872 -0.23592745 0.02468899 -0.08102257 0.041357767 0.03394228 0.0023182489 -0.06268256
0.038956847 0.084809415 -0.022844745 0.023738317 0.036171865 -0.06937576 -0.07036685 0.20414038
-0.017915832 -0.0049231397 0.033338726 0.09688381 0.043895185 0.00037525664 0.02273652 -0.025991902
0.09779556 0.121035695 0.3415904 0.11644067 -0.01228379 -0.011286221 -0.084191635 -0.12211589
0.013935048 -0.06344385 0.169213 0.15942588 0.045970533 0.048631288 0.025046866 0.12483298
0.22039928 0.059212092 -0.016107513 0.30967367 0.028735386 -0.09749507 0.054363705 -0.011198314
0.23030208 0.16377176 -0.006906801 0.12325569 -0.094563015 -0.009211436 -0.04305556 -0.011776091
-0.087207116 0.10070409 -0.03328581 0.13451985 0.028884614 0.009737009 -0.1151679 0.03465293
-0.09259589 -0.05609594 0.1508698 -0.019883279 0.022091048 0.052398007 0.15600139 -0.07489089
0.038025122 0.02878379 -0.0490293 0.023698645 0.007578518 0.25496083 0.18862899 0.20521888
-0.008454247 0.12809996 -0.14246377 0.18677372 0.13316591 0.10667463 0.07889203 -0.11289438
0.07336657 -0.12491673 0.13764377 -0.10234446 0.047863636 0.2170917 0.04806328 0.14622356
0.14521645 0.13323267 0.11722543 0.022499401 0.056434717 -0.10130612 0.22466101 -0.014923289
0.12682213 0.016732741 0.06951818 0.036637735 0.021062449 0.12946036 0.07198885 -0.01632284
0.037631467 0.024353059 0.0063432287 -0.07255553 -0.08856903 0.11838112 0.17492579 0.09274728
-0.01563721 -0.000380429 0.1595995 0.013706222 0.079749055 -0.123750046 0.1847269 -0.072324306
0.2199582 0.11705271 0.28081718 -0.10772891 0.14808159 0.04951187 -0.03350537 0.07415117
0.13745311 -0.051325 -0.11563172 -0.050301753 0.1399911 0.19091249 -0.026068008 0.0043724147
-0.10679494 -0.19089931 -0.019425191 -0.13253944 -0.18848266 0.04219577 0.0518103 -0.15545641
0.05810855 0.13502318 0.026565332 -0.008727395 0.14527164 -0.056552056 -0.0013352379 -0.01648039
0.06655295 -0.090450905 0.14474711 0.058529995 0.17816223 0.0074278987 -0.0049302815 -0.0054610376
0.024268618 0.17882095 0.10595953 0.015781837 -0.0018883032 0.010938154 -0.00638581 -0.0035959033
-0.15842688 -0.21307905 -0.02655706 0.13667786 -0.11185051 -0.049413946 0.11431876 -0.0092592295
0.016511047 0.027983153 0.092288844 -0.037101652 -0.09776339 -0.054181665 -0.20518245 0.059185725
0.20577058 0.25562426 0.12320228 0.093337044 -0.036801726 -0.024818704 -0.07119367 0.18509383
-0.008734049 -0.035837937 0.06503412 0.14957185 0.16933091 0.13757864 -0.020882817 -0.015304461
0.09326342 0.025758373 -0.047414508 0.11688843 0.067438796 0.14575821 0.0046718367 -0.016820207
-0.009919749 0.034375478 0.00016187207 0.10016351 0.13384266 -0.18261196 0.24915957 0.030528778
0.11880322 0.15056355 0.018923312 0.2052801 0.0896233 -0.03476527 0.05818382 0.08207829
-0.03757017 0.20458028 0.077436335 0.11383788 0.08726168 0.13177462 0.06312347 0.025332572
0.08936141 -0.029738043 -0.04645769 0.20142896 0.15443642 0.111990035 0.08592013 0.008020195
00000000: 0e1c 323e e040 fb3c 968e cbbd 2f9b da3c
00000010: 7796 513d 2949 9c3e 2512 2ebc 6ffc cabd
00000020: 345a febc f796 71be 9140 ca3c 29ef a5bd
00000030: c366 293d 0f07 0b3d c3ed 173b b75f 80bd
00000040: 3791 1f3d 8fb0 ad3d e724 bbbc dc76 c23c
00000050: f328 143d e114 8ebd 7f1c 90bd 2d0a 513e
00000060: 39c4 92bc 4a52 a1bb 308e 083d 056b c63d
00000070: 70cb 333d 18be c439 f041 ba3c f8ec d4bc
00000080: 0a49 c83d 90e1 f73d f0e4 ae3e 7278 ee3d
00000090: f341 49bc d8e9 38bc aa6c acbd e517 fabd
000000a0: d44f 643c d9ee 81bd 2c46 2d3e 8a40 233e
000000b0: 994b 3c3d 9a31 473d 162f cd3c 6fa8 ff3d
000000c0: 59b0 613e 6188 723d e7f3 83bc 8c8d 9e3e
000000d0: 7966 eb3c 7fab c7bd 7aac 5e3d 2279 37bc
000000e0: 4fd4 6b3e c9b3 273e 7252 e2bb 7b6d fc3d
000000f0: 41aa c1bd 90eb 16bc 075b 30bd 81f0 40bc
00000100: a599 b2bd f23d ce3d b456 08bd 92bf 093e
00000110: 6d9f ec3c fa87 1f3c 26dd ebbd 3bf0 0d3d
00000120: eaa2 bdbd dbc4 65bd 9d7d 1a3e 42e2 a2bc
00000130: 49f8 b43c 4b9f 563d d4be 1f3e 6560 99bd
00000140: 3bc0 1b3d fccb eb3c f3d2 48bd a923 c23c
00000150: 3755 f83b 3a8a 823e f527 413e e624 523e
00000160: af83 0abc a32c 033e 06e2 11be 9c41 3f3e
00000170: a55c 083e 3a78 da3d 2592 a13d 2b35 e7bd
00000180: 3641 963d 58d4 ffbd 7df2 0c3e f999 d1bd
00000190: a90c 443d 494d 5e3e 00de 443d a1bb 153e
000001a0: 9fb3 143e 256e 083e e313 f03d aa50 b83c
000001b0: 1728 673d 9579 cfbd 890d 663e d080 74bc
000001c0: a9dd 013e 1a13 893c 8c5f 8e3d 7311 163d
000001d0: 288b ac3c 4291 043e e46e 933d 7ab7 85bc
000001e0: 7423 1a3d 1180 c73c dcda cf3b fe97 94bd
000001f0: ae63 b5bd cd71 f23d bf1f 333e 49f2 bd3d
00000200: 9b19 80bc 5174 c7b9 0d6e 233e 1090 603c
00000210: 7953 a33d aa70 fdbd 0c29 3d3e c41e 94bd
00000220: b93c 613e 55b9 ef3d 45c7 8f3e faa0 dcbd
00000230: b3a2 173e f5cc 4a3d ed3c 09bd 92dc 973d
00000240: 82c0 0c3e 2a3a 52bd 53d0 ecbd 3609 4ebd
00000250: d459 0f3e 907e 433e 938c d5bc 7946 8f3b
00000260: 4eb7 dabd 1c7b 43be 9421 9fbc 6bb8 07be
00000270: 9901 41be 79d5 2c3d 0a37 543d f72f 1fbe
00000280: 3b03 6e3d 8443 0a3e 8a9f d93c 59fd 0ebc
00000290: 17c2 143e 21a3 67bd 2603 afba e201 87bc
000002a0: ea4c 883d 533e b9bd 9638 143e 26bd 6f3d
000002b0: 2970 363e bb65 f33b 338e a1bb 81f2 b2bb
000002c0: fbce c63c d71c 373e 4f01 d93d e948 813c
000002d0: f180 f7ba f135 333c 0f40 d1bb 3fa9 6bbb
000002e0: a83a 22be 6531 5abe 318e d9bc 48f5 0b3e
000002f0: e111 e5bd 4766 4abd f41f ea3d 06b4 17bc
00000300: 2d42 873c ed3c e53c ef01 bd3d e7f7 17bd
00000310: 2c38 c8bd 98ed 5dbd 591b 52be bb6c 723d
00000320: 86b5 523e 2fe1 823e 7a51 fc3d 7e27 bf3d
00000330: 68bd 16bd 9850 cbbc fdcd 91bd 3d89 3d3e
00000340: 4219 0fbc cdca 12bd 9c30 853d 5d29 193e
00000350: 1565 2d3e 6ae1 0c3e 7112 abbc 90bf 7abc
00000360: e400 bf3d 3903 d33c b735 42bd 3463 ef3d
00000370: 5a1d 8a3d a441 153e 3516 993b 88ca 89bc
00000380: 7186 22bc 4dcd 0c3d 34bc 2939 8722 cd3d
00000390: 0d0e 093e a1fe 3abe b023 7f3e 7d17 fa3c
000003a0: 1a4f f33d 552d 1a3e 1005 9b3c f234 523e
000003b0: 6c8c b73d 0766 0ebd 2852 6e3d aa18 a83d
000003c0: 2ee3 19bd 7e7d 513e f196 9e3d d623 e93d
000003d0: 40b6 b23d edef 063e e146 813d 4186 cf3c
000003e0: 1d03 b73d 329d f3bc 6b4a 3ebd 6543 4e3e
000003f0: 9524 1e3e 085b e53d e5f6 af3d 2367 033c

weight f4 [2, 75]
0.13459846 -0.18624905 0.20824686 0.147317 -0.23477308 0.4703217 0.07902175 -0.2903633
-0.17421313 -0.106383994 -0.29664513 -0.21304592 -0.26510078 -0.33080435 -0.32840708 -0.14879279
-0.19872507 -0.29117826 0.08824052 0.14826588 -0.2689669 -0.16769503 -0.021467226 0.26589707
-0.15276816 -0.07349666 0.3977108 -0.38245413 -0.3354288 -0.20559576 0.22609195 -0.07541077
-0.17519714 0.26312143 0.5806114 0.2859352 0.28505912 -0.089565344 0.17762959 -0.29066604
-0.26089376 0.07294495 -0.3726529 -0.15964912 -0.02696554 -0.12738623 0.14879152 0.3346115
0.20083687 -0.27030715 -0.17955957 -0.5240035 -0.10391313 -0.21471281 0.2967544 0.1095315
0.31878474 -0.2130264 -0.19291037 0.040793706 -0.09408339 -0.09365513 -0.31973895 -0.18161014
0.16266923 0.034946345 -0.34156865 -0.35121372 -0.20114315 -0.3730555 -0.09164732 -0.45055404
-0.24811292 0.1919518 0.3484223 -0.10269082 -0.010062355 -0.077874176 -0.17236279 0.2684153
-0.46137452 -0.004907828 0.18960623 0.25133783 0.10473428 0.29451042 0.18962531 0.1706043
0.23388675 0.26549244 0.12836401 0.2277227 0.28628397 -0.20160851 -0.24179974 0.21633458
0.23547179 0.19586557 -0.13203019 0.20405117 0.1578819 -0.44445622 0.18607523 0.2651098
0.15476924 -0.22509548 0.20073919 0.1906984 -0.32675022 -0.56107616 -0.27925423 -0.2554577
0.034643386 -0.021814765 0.20566587 0.3307551 -0.18848754 0.35117555 0.21304986 0.11144481
0.16564846 0.02206032 -0.22472106 -0.2653481 0.32948297 0.021885512 0.54471403 0.11659344
0.26015705 -0.33317006 -0.27262437 -0.21386199 0.2950858 0.20794795 0.11001258 0.026551528
-0.02602654 0.28898263 0.28240135 -0.20350493 -0.044015847 0.30281052 0.353312 0.2603264
0.3896881 0.15635218 0.44575614 0.1562323 -0.13956083 -0.36875847
00000000: 2ed4 093e 12b8 3ebe aa3e 553e 45da 163e
00000010: 5b68 70be 02ce f03e 28d6 a13d 80aa 94be
00000020: ed64 32be dadf d9bd dfe1 97be b628 5abe
00000030: 4abb 87be 305f a9be f924 a8be 235d 18be
00000040: 967e 4bbe 5115 95be 72b7 b43d 03d3 173e
00000050: 08b6 89be 3fb8 2bbe 09dc afbc a923 883e
00000060: 426f 1cbe 6b85 96bd c0a0 cb3e 07d1 c3be
00000070: 53bd abbe b287 52be a684 673e f670 9abd
00000080: e166 33be dab7 863e f3a2 143f 1966 923e
00000090: 45f3 913e 096e b7bd 88e4 353e 2ed2 94be
000000a0: de93 85be 2964 953d 5ccc bebe 0f7b 23be
000000b0: d6e6 dcbc 8971 02be ce5c 183e 3352 ab3e
000000c0: 2ea8 4d3e b365 8abe 77de 37be 1825 06bf
000000d0: 68d0 d4bd addd 5bbe 31f0 973e 0d52 e03d
000000e0: c137 a33e 9823 5abe 4c8a 45be 4d17 273d
000000f0: cbae c0bd 43ce bfbd d3b4 a3be 02f8 39be
00000100: c392 263e e623 0f3d 16e2 aebe 49d2 b3be
00000110: 78f8 4dbe 2101 bfbe 97b1 bbbd 05af e6be
00000120: 5011 7ebe 038f 443e 6864 b23e 914f d2bd
00000130: 93dc 24bc 7f7c 9fbd df7f 30be bb6d 893e
00000140: 4839 ecbe d8d1 a0bb 2328 423e 5aaf 803e
00000150: ed7e d63d 12ca 963e 232d 423e e5b2 2e3e
00000160: 0280 6f3e a0ee 873e db71 033e 2430 693e
00000170: d093 923e 7672 4ebe 5a9a 77be d086 5d3e
00000180: 841f 713e fc90 483e ec32 07be caf2 503e
00000190: cbab 213e c48f e3be 818a 3e3e 79bc 873e
000001a0: d47b 1e3e 6e7f 66be 938e 4d3e 7146 433e
000001b0: ce4b a7be b0a2 0fbf 69fa 8ebe 5acb 82be
000001c0: 39e6 0d3d e1b4 b2bc 139a 523e bc58 a93e
000001d0: e102 41be 48cd b33e be29 5a3e 2d3d e43d
000001e0: c09f 293e d8b7 b43c 471d 66be b5db 87be
000001f0: feb1 a83e 3f49 b33c 6172 0b3f 8bc8 ee3d
00000200: 4e33 853e 4495 aabe 6c95 8bbe a3fe 5abe
00000210: 7c15 973e 4ff0 543e 474e e13d 9782 d93c
00000220: 9c35 d5bc 88f5 933e e996 903e 9963 50be
00000230: f649 34bd fb09 9b3e 4fe5 b43e 8049 853e
00000240: 3385 c73e c91a 203e 263a e43e 5cfb 1f3e
00000250: 09e9 0ebe e9cd bcbe

bias f4 [2]
-0.25570092 0.17828083
00000000: 3beb 82be 408f 363e
