LSTM_NER/LSTM_NER.pth (torch, 25743 bytes, 7 tensors)

weight f4 [829, 6]
00000000: 4e84 b33f 0b8d 01c0 48d4 b53f 9c01 07bf
00000010: 3077 8bbf c7d5 bbbf ba8d 4ebf 29c2 213f
00000020: 6d1e cc3f 2d6e 1a40 7b7d 6ebf 8edd 0cc0
00000030: 5293 763f 9352 0240 ee3b a9bf 4a6b 19c0
00000040: 1b0f 9e3f 4956 f6be b99b fb3e 27b4 653e
00000050: 1c38 9fbf d000 13bf 0223 0540 5314 ba3e
00000060: 7933 4bbf 4999 35bf c012 fa3e 339a 9b3f
00000070: 6d95 2440 6262 b63f 6d83 353f 76fa 8940
00000080: 6e21 f9bf 8b4f 3ebd b32c 7dbf e9dc b2bf
00000090: 11c0 3ebf cbc2 1bbf bbf7 cc3f 4b9a b33d
000000a0: 2a5b 033e fc90 1fbf ecaf 77bf cdc2 a23f
000000b0: bb1f e6be 0f8c 893f eecd 7fbf 7505 a13f
000000c0: ee91 45be 441f 7bbf d466 523f b7b9 ea3e
000000d0: 474b bfbf 9e37 9d3f 61df 3140 6048 863f
000000e0: 6b6d 69bf 5ed5 44bf c81b 9c3f 4c1a 65bf
000000f0: 784c e0bf 24e2 1dbf aace 91bf aa43 3d3f
00000100: 2854 6ebf 5adc 84bf 02e9 13c0 0a74 1f3f
00000110: 60db 4640 c9c9 30bf 7e92 acbd 3846 6b3d
00000120: 4a4b 0d3d 8b33 933b 54f9 5e3f d0da 1440
00000130: a5ae 363f edda 23bf 07d7 6abf c997 493e
00000140: 95be 0040 b01f 18bf e9c7 95bf 93e3 663f
00000150: cea2 283f 4f2c 153f 914d 31bf affb 5b3f
00000160: d786 683e 9cc6 3abf 23cf ccbf add1 bb3e
00000170: ccd3 04bf aacc 8e3f 9406 aa3e df22 a23d
00000180: f53d 75bf 9f7c 4ebf d14b 76bf d6d3 c7bf
00000190: fae1 06bf d977 8c3c 5c4f 0940 1e4e 7fbf
000001a0: 8d79 5c3f 94d9 f2bf b7e9 5abf c516 d13f
000001b0: c543 ac3f b98c 89be 49ca f2bf 097e 873f
000001c0: 415c 95be 9521 06bf 0395 7a3f b497 afbd
000001d0: a069 1fbf 0fc8 373f 76c0 303f a004 a03f
000001e0: 7bf6 c7bf 1ba1 40bf 0998 a0be 64fb b5be
000001f0: c5b9 b9be a166 92bf 9e50 12bf c6fd f1be
00000200: f21b 953f 166f 8d3f 219a 0e40 38cb 92bd
00000210: dbfd 343c 2650 5140 43e8 303f 5c30 823e
00000220: 56fc dabf 93bf 333e a8e7 05bf 86fe 1740
00000230: 32cd 54bf 9062 3c3f 1e72 0abf f18d a33f
00000240: 7f8f 2a40 8b9e 0140 d064 d8bf 0afd b53f
00000250: 28a5 5d3f 0b54 343d 69f0 553f befb d8be
00000260: 6586 47bd b2bb bdbe 9c47 c8be 64f1 3fbf
00000270: 6176 d73e 2bbd b5be 2d18 cf3e 04ce e9be
00000280: 243d ab3e 5ea6 eabf fae1 89bf bef9 d0be
00000290: bef2 763f 4018 a33f d641 0a40 4f42 debf
000002a0: 2a35 4bbf 3d0b 6f3f a58d 6ebf af26 2cc0
000002b0: 8d4f 163f 0e7e 90bf a2a6 66bf 3f6c 22bf
000002c0: 8519 7f3f 7d02 10c0 5855 8b3f e9ad 19bf
000002d0: 016b 44bf de85 87bf 37e2 e03e df60 12bf
000002e0: 5ce4 033e ef87 8a3f bad6 2b40 2ae2 40bf
000002f0: aa0c a73f f4d9 4abe 799d 493c d3be d73f
00000300: c8ac eabf fae9 8abf e7a6 04bd 2aa3 3dbe
00000310: a671 71bf d0de cdbe bb9d c5bf 15ab 88be
00000320: 15fe 87bf 5018 5f3e 659b 9f3e 424f 24bf
00000330: c748 61be b64a 883e 3736 c7bf 4661 bd3f
00000340: 7f12 c73f 7cd5 a03f ceda 57bf c89e 04c0
00000350: 5980 68bf 1071 8ebf beb6 c0bf 9c87 133f
00000360: 6f90 df3f 564e 0d40 1c75 2440 afd4 2f3e
00000370: 2fae 1a3e 78cc 21bf 10a7 b03f 405a c03f
00000380: 854d a73f 4cc4 74bf 6bbb c5bf adcd 7f3f
00000390: 555c 9d3f 8f78 dc3f 3e03 92bf ca2e 0bbf
000003a0: 563b b5bf f960 93bd 554d bfbd 4433 80bf
000003b0: 4b23 c6bd 0e98 92bf 824b 3f3e c310 43bf
000003c0: 0bfa b9bf d80b 50bb 854b 27be e9b3 903f
000003d0: 4777 96bc a534 c0bf 470f e3be cada dc3f
000003e0: 5b6d 213e a18a db3d 1a35 38bf 20ce 8c3f
000003f0: ce6a 0fc0 a595 14bf c702 10bf b8fa 4a3f
1.4024751 -2.0242336 1.4205408 -0.5273683 -1.0895748 -1.4674615 -0.8068501 0.6318689
1.5946785 2.4129746 -0.9316022 -2.2010226 0.9631854 2.03629 -1.3221414 -2.3971734
1.234836 -0.48112705 0.49142244 0.22432004 -1.2438998 -0.57423115 2.0802617 0.3634363
-0.79375416 -0.7093702 0.4884243 1.2156433 2.5716202 1.4248774 0.70903665 4.311824
-1.9463327 -0.046462577 -0.9889633 -1.3973666 -0.7451182 -0.60844105 1.6013101 0.087696634
0.12827745 -0.62330604 -0.9675281 1.2715698 -0.44946083 1.0745867 -0.999236 1.257979
-0.19293949 -0.9809458 0.82188153 0.45844814 -1.4944848 1.2282598 2.779259 1.0490837
-0.91182584 -0.7688807 1.2195978 -0.8949325 -1.7523336 -0.6167319 -1.1391194 0.7393137
-0.9309716 -1.0379746 -2.3110967 0.62286437 3.1071396 -0.690579 -0.08426379 0.057440013
0.03449563 0.0044922284 0.87099195 2.3258553 0.71360236 -0.6400593 -0.91734356 0.19686808
2.0116322 -0.5942335 -1.1701633 0.90191 0.6587342 0.58270735 -0.6925898 0.85930914
0.22707687 -0.72959304 -1.6000713 0.36683407 -0.51885676 1.1156209 0.33208144 0.079168074
-0.95797664 -0.80658907 -0.96209437 -1.5611522 -0.5268856 0.017146992 2.1454687 -0.9972857
0.8612297 -1.897265 -0.8551287 1.6335074 1.3458182 -0.26865175 -1.8967983 1.0585338
-0.29171947 -0.5239499 0.97883624 -0.08573857 -0.62270546 0.7178964 0.6904367 1.2501411
-1.5622095 -0.7524583 -0.31365994 -0.35543358 -0.36274543 -1.143757 -0.5715426 -0.47263926
1.1649153 1.1049526 2.2281573 -0.07167667 0.011046852 3.2705169 0.69104403 0.2542752
-1.7108257 0.17553549 -0.52306604 2.3749099 -0.83125603 0.73587894 -0.5408038 1.2777692
2.6650083 2.0253017 -1.6905766 1.4217846 0.86580133 0.044025462 0.8356996 -0.42379564
-0.048712153 -0.37057263 -0.39117134 -0.7497771 0.42082503 -0.35495886 0.40448132 -0.4566499
0.33445084 -1.8332021 -1.0772088 -0.40815538 0.96464145 1.2741776 2.1602683 -1.7363986
-0.79377997 0.93376523 -0.9318488 -2.689861 0.58715135 -1.1288469 -0.9009801 -0.6344642
0.99648315 -2.2501519 1.088542 -0.6003099 -0.76725775 -1.0587728 0.43922588 -0.57179064
0.12880081 1.0822734 2.6849809 -0.753451 1.305074 -0.19809705 0.012305611 1.685511
-1.8333979 -1.0852654 -0.032385733 -0.18519273 -0.9431404 -0.40209055 -1.543876 -0.26693025
-1.0624415 0.21786618 0.31173244 -0.6418344 -0.22000419 0.266195 -1.556342 1.479531
1.555252 1.256515 -0.84318244 -2.0721912 -0.90820843 -1.1128254 -1.5055768 0.576288
1.7465953 2.2079062 2.5696478 0.17170976 0.15105508 -0.6320262 1.3800983 1.5027542
1.3070532 -0.95612025 -1.544782 0.9992321 1.2293802 1.7224292 -1.140724 -0.5436827
-1.4158733 -0.071962304 -0.09340922 -1.0015645 -0.096747 -1.1452653 0.18681148 -0.7619745
-1.4529432 -0.003174534 -0.16337402 1.1304904 -0.018367423 -1.5016066 -0.44347593 1.7254269
0.15764372 0.10719801 -0.71956027 1.1000404 -2.2408938 -0.5804084 -0.5625424 0.79288816

weight_ih_l0 f4 [24, 6]
00000000: bcb9 043f 56c4 20bf 5a63 ed3e c95b cebd
00000010: 31f1 ad3d 93a0 95bf a11f 4abf 3eb8 a93f
00000020: 44fe 07c0 ebe2 953d 3352 883f 4ae5 8e3f
00000030: efb2 9d3f ff70 3d3b 6b35 7fbf 652c 51bf
00000040: ddfe 8dbe f88e d6bd 0965 7c3f 7b4e 963d
00000050: eef1 5abf 6afd 463e 99d9 b83d 659e 83bf
00000060: 2f87 e53f f34e cdbf cf45 b93e ddb9 cebd
00000070: d622 3d3f 1e2f 153e 2185 7d3e f206 e73f
00000080: 1321 8ebe 4510 49bf 4cb8 afbe 4e07 d7be
00000090: 742c 3ebe 2987 29bf 523d dd3c ece2 b53e
000000a0: 959d bfbe 4f65 43bd a38d 0bbf c0ca a3be
000000b0: 6dc7 fd3e 5c6e 433f ffef 493f 6194 b1be
000000c0: aa35 e03e d31e 16bf 45ed cd3f afc5 0d3f
000000d0: b6af 6fbf 6d53 98bd 037c c4bf dcba d6be
000000e0: 9341 a13e c893 c3bf f7df 04bf efe3 75bf
000000f0: 89b0 53bf 1357 08bf 4de6 39bf e721 9c3e
00000100: 3a73 f0be ebd7 8dbf e826 15be 8bda 973f
00000110: ec9b a43e eeb2 9d3c dafc 903e 6d4b 13bf
00000120: 85c0 b83e 0a0f 403f a292 c7bf 2118 323e
00000130: 17b9 993e d724 d03e 6c29 7fbe ff5d 3f3f
00000140: 8356 4c3f a0df 363e 8657 8bbd e2e7 9bbe
00000150: d2a4 f2bf deee e6bf a86b 8c3f ee61 4e3f
00000160: 313c 373f a63b c23e e508 e0bf 2ed7 b83f
00000170: 2580 883f 7758 41bf dca9 27bf 30fb 483f
00000180: 7803 fe3f 5f62 6abf c87e be3e c347 9bbc
00000190: abed cb3e 2135 063f 6503 5abf 9368 e5be
000001a0: 049e d13f 071f d5bf ef7d 1dbd 7752 63bc
000001b0: ca31 39bf d1f3 29bf 83ae 1a40 285f 2cbf
000001c0: bb7f 0bbf 6702 5abf bbd9 563f de3f 933f
000001d0: 9d2f 243f fc86 d33e 216b 3b3e 95b9 d83e
000001e0: e1f1 acbf 781d 9cbe ff19 e63e 2855 62bf
000001f0: 2c83 923f ff22 43c0 32e8 9bbe e628 e1bf
00000200: 6c55 a6be f1cb 703d 18b2 1c3d 06ff 4a3f
00000210: 37c3 093e 07e2 03bf e29c 2f3e 4dc6 a83e
00000220: f64f 89bf 90f6 23bf 67f9 c7be 6d13 bbbf
00000230: a04b 1fbe 9605 c63f 0206 88bd 7f94 073f
0.5184591 -0.62799585 0.46364862 -0.100761004 0.08493269 -1.1689628 -0.7895451 1.3259351
-2.1248941 0.07318672 1.0650085 1.1163723 1.2320231 0.0028906462 -0.99690884 -0.81708366
-0.27733508 -0.10476488 0.9859167 0.07339188 -0.85525405 0.19432607 0.090258785 -1.0282713
1.793188 -1.6039718 0.36186072 -0.10094044 0.7388128 0.14568755 0.24757816 1.8048995
-0.2775961 -0.7854045 -0.34320295 -0.4199776 -0.18571645 -0.66221863 0.027006779 0.3552469
-0.37424913 -0.047704037 -0.54512995 -0.31990623 0.49566212 0.7634027 0.7888183 -0.34683517
0.43790942 -0.58640784 1.6088034 0.55379766 -0.9362749 -0.07437787 -1.5350345 -0.41939437
0.31495342 -1.5279474 -0.51904243 -0.96050924 -0.82691246 -0.53257865 -0.72617036 0.30494615
-0.4696291 -1.1081518 -0.14565623 1.1863569 0.3215021 0.01925036 0.2831791 -0.57536966
0.3608438 0.7502295 -1.5591624 0.17392017 0.30024025 0.40653107 -0.24918145 0.747528
0.79819506 0.17858744 -0.06803803 -0.3045035 -1.8956549 -1.8041646 1.0970354 0.8061818
0.7157622 0.37936133 -1.7502714 1.4440668 1.0664107 -0.7552561 -0.6549356 0.7850828
1.9844809 -0.9155635 0.372061 -0.018955117 0.39829764 0.5242482 -0.8516143 -0.44806346
1.6376348 -1.6650094 -0.038450178 -0.013874642 -0.723416 -0.6638766 2.4169014 -0.67332697
-0.54491776 -0.85159916 0.8392598 1.1503866 0.6413515 0.41313922 0.18302585 0.42329088
-1.3511316 -0.30491233 0.44941708 -0.8841119 1.144628 -3.049011 -0.30450588 -1.7590606
-0.32487047 0.058788244 0.03825578 0.79295385 0.13453375 -0.51516765 0.1714969 0.3296379
-1.0727527 -0.640481 -0.39057466 -1.4615303 -0.15556192 1.5470455 -0.06641771 0.5296096

weight_hh_l0 f4 [24, 6]
00000000: 2c67 f33d 5c93 d6be 573d 0fbe f3fb ed3a
00000010: 5099 d53e 0a68 f8bd f6ef 913d f094 ecbd
00000020: fe27 11bf f301 aa3d da1b acbe c513 e7be
00000030: da23 dd3e 579d c23e 904d 8e3e d24c e23d
00000040: 65df 3ebf 428a 283e d0b5 07be e318 8cbf
00000050: 4fc8 613f a613 963f 8014 183d a59f f6be
00000060: ec66 8a3f 2443 1b3f 2c11 4dbe cd3d 75be
00000070: d9a8 91bf 1262 373e 8dbd a8bf 7063 e83d
00000080: e917 8f3e 980f d33f 48ad 58be fbe5 9abf
00000090: bf68 db3e 3e2f f0be e497 7bbf 1a19 e13c
000000a0: b663 17bf 3760 8cbd a9df 953d fe16 74be
000000b0: a1a7 d83d a7b6 843c 2f96 b23c 889d 52bd
000000c0: 7849 083e 41ef 6abe 03fd 33bf 82f7 02bf
000000d0: 6346 87bd c222 b03e 368d 94bf 5d66 d6be
000000e0: 68d1 6ebe eb68 1d3e ccc8 813d 55af da3e
000000f0: b36c 4bbf 7b3f 18bf 47a1 dcbe 2e77 80bf
00000100: 50b2 c53e 7f50 0f3e 73e5 24be b26f c1be
00000110: cdba 5cbf a0e9 89be ebd6 a1bf 03cf 473e
00000120: ce9b b83e 6808 10be 3466 8abf 6492 3bbd
00000130: 3091 3ebf 58e2 4d3e 93da 193f 8ede e5bf
00000140: 5486 72bf 74da b33f 2793 b73f e746 07bf
00000150: 86cf 26be 4cc2 983d e517 913d 69f9 e13f
00000160: 92d1 753f 6feb d7bf 3a1b 7d3f 9201 fbbd
00000170: 7d42 2f3e cd63 ae3f 49f7 55bf 91a6 afbf
00000180: f94b cebe 97e6 a43c ada9 843e f8eb 483f
00000190: da34 bb3e f5c6 39bf 73b0 c2bf 920c fe3e
000001a0: 025a e8be b95d debe 4edf 393e cfdd 443f
000001b0: b763 123e bb88 83bf 00cb 01bd 12fd 86bf
000001c0: 644b 863f ee5c cd3c 54e9 2fbd 5594 33be
000001d0: b9ec 8abf dca5 9fbd 8ea6 44be 9618 1dbf
000001e0: b57e b1be ce3b 1a3e 8498 3f3f 40c8 efbe
000001f0: a5d1 babf fa8c 263f bd85 ff3e e61e 0cbf
00000200: 0f6f 5fbe 33bc 1dbf 67db 22bf a7c7 843e
00000210: c9eb f83e e84b bebe bbe8 34be a1d5 d7be
00000220: c73e 08bf 35cd eabd 6680 debd eed8 e9bd
00000230: 73ed 5dbf 48b1 17ba a8c3 d2be 704c 933e
0.11884913 -0.419093 -0.13988243 0.0018156752 0.4171853 -0.12129219 0.07125847 -0.11551845
-0.5670165 0.08301153 -0.33615 -0.4513227 0.43191415 0.38010666 0.2779355 0.110498086
-0.74559623 0.16458991 -0.1325295 -1.0945095 0.8819627 1.1724746 0.037128925 -0.48168674
1.0812659 0.60649323 -0.20026082 -0.23949356 -1.1379653 0.17908505 -1.3182846 0.11347091
0.2794793 1.6489134 -0.21159852 -1.2101434 0.42853352 -0.46911043 -0.9827864 0.02747779
-0.5913652 -0.06854289 0.073180504 -0.23836896 0.10578848 0.016200377 0.021800129 -0.051419765
0.13309276 -0.2294283 -0.7030794 -0.51158917 -0.06605222 0.34401518 -1.1605594 -0.41874972
-0.2332207 0.15372054 0.06337127 0.42711893 -0.79462737 -0.59471864 -0.43091795 -1.0036371
0.38612604 0.1399555 -0.16103153 -0.3778053 -0.86222535 -0.26936054 -1.2643713 0.19512562
0.3605637 -0.14065707 -1.081244 -0.045793906 -0.7444029 0.20105875 0.6009914 -1.7958543
-0.9473622 1.4051042 1.4341782 -0.52842563 -0.16290101 0.07458934 0.07084636 1.7654239
0.96022904 -1.6868724 0.9886967 -0.12256159 0.17115207 1.3624207 -0.8358045 -1.3722707
-0.40292338 0.020129485 0.25910702 0.7848506 0.3656376 -0.7256921 -1.5210098 0.49618965
-0.4538117 -0.4343088 0.1815159 0.76900953 0.1429585 -1.0276102 -0.031687737 -1.0545981
1.0491757 0.025068726 -0.04294713 -0.17537053 -1.0853492 -0.07795307 -0.1920416 -0.6136564
-0.34666982 0.15061876 0.74842095 -0.46832466 -1.4595228 0.65058863 0.49906722 -0.5473465
-0.21819709 -0.61615294 -0.6361603 0.25933573 0.4861739 -0.37167287 -0.17666905 -0.42155173
-0.5322079 -0.114649214 -0.10864334 -0.11418329 -0.86690444 -0.000578661 -0.411649 0.28769255

bias_ih_l0 f4 [24]
00000000: 671b 753f 2822 fd3e c066 e43f 5921 9c3f
00000010: 3550 cd3e 88ff 69be 159a 093f c524 2fbf
00000020: 5134 d5be 3cd9 4f3f d8f8 253f 6f6a 933f
00000030: 0862 b53e e25c bebe dc93 7dbe f2e6 ef3d
00000040: 0224 c5bf fd0c a23e e665 b93f e48d 353f
00000050: e3ec 8a3f 8bff db3f 882d 833f d666 933f
0.9574494 0.49440122 1.7843857 1.2197677 0.40100256 -0.22851384 0.53750736 -0.6841548
-0.41641477 0.8119085 0.6483283 1.1516856 0.35426354 -0.3718024 -0.24763435 0.11713971
-1.5401614 0.31650534 1.4484222 0.7091963 1.0853542 1.718736 1.024827 1.1515758

bias_hh_l0 f4 [24]
00000000: c6fd 043f fc6e f13e 7a68 d63f f890 243f
00000010: 2a7c f13e 6322 a0be 57bc 243f cafd 75bf
00000020: e79a 64be b43f b03d b1e1 7b3f 55d6 803f
00000030: cee9 2c3f 9af8 4ebf f86a 813e 4598 fbbe
00000040: 21c3 a9bf 5c8d 463f 9a28 8e3f dd4f 813f
00000050: 58e7 863f c320 a23f 8774 dc3f fcb8 ca3f
0.5194973 0.47154987 1.6750634 0.64283705 0.47165042 -0.31276235 0.64349884 -0.96090376
-0.22324716 0.086059004 0.9839125 1.0065409 0.6754426 -0.80848086 0.25276923 -0.4913961
-1.3262674 0.7755945 1.1106141 1.0102497 1.053935 1.2666248 1.7223061 1.5837703

weight f4 [4, 6]
00000000: 818b 0dc0 0844 7bc0 1fb3 d8c0 7d1a 29c0
00000010: d528 13c0 b2b4 3940 835c 96c0 44c1 0d3e
00000020: 676b 4440 0ef5 8c3f 0721 2340 0538 853d
00000030: d7c6 6240 0010 4540 bad3 c83f 5761 eabf
00000040: 1fb3 4840 8a4f 56be 60f6 4440 c185 d33e
00000050: 766d 3640 ae6b 8240 d60f 7bc0 fe4f 11c0
-2.2116396 -3.9260273 -6.7718654 -2.6422417 -2.2993672 2.9016538 -4.698793 0.13843256
3.0690553 1.1012285 2.5488908 0.065048255 3.5433862 3.0791016 1.5689614 -1.8310956
3.1359327 -0.20928779 3.0775375 0.41312984 2.850431 4.0756445 -3.9228415 -2.2705073

bias f4 [4]
00000000: 9db9 463f 9146 e23f a320 b5be 72c8 e4bf
0.77626973 1.7677785 -0.35376462 -1.7873671
