LSTM_NER/LSTM_NER.pth (torch, 35599 bytes, 7 tensors)

weight f4 [1239, 6]
00000000: 3540 753f 4e65 78bf 27d7 603f 083a 0abf
00000010: 79f2 683f 2f3a 23c0 0c64 5d3f 9149 143f
00000020: a87a 923f 44db 00bd c96f 9c3f c6e7 84bf
00000030: a68a bd3f 0c95 e1bf 3193 b6bf ed72 42bf
00000040: 9e6b f2bf 6cfa 843f dba2 bc3f 0226 9abe
00000050: e34b 903f 577e 053f eb28 2440 5583 ad3f
00000060: 383e 19bf a4c7 2e3e 6936 31bf 30ae c2be
00000070: 0aac 89bf a452 92bf 82b8 2240 df8b 8dbe
00000080: bb2e e3bf 06d5 3fc0 64ce c03e 9fe8 693f
00000090: 63e0 3fbf 1ded 4c3e bfb2 8dbd b081 20bf
000000a0: b75e 6ebf c5ac 14bf 2793 3dbf 980e 6b3d
000000b0: e99b 6d3e 5702 35bf bc26 9bbf cfcf cb3f
000000c0: 6169 53bf 6f99 553d 242e f4be 049c f43e
000000d0: 4ffa d0bf 7f30 eb3e 9898 773f d32b 52bd
000000e0: e453 1abf 098c 07c0 f47f b2bf aeca 00c0
000000f0: d848 bc3e af02 273e bc50 eb3e 9e31 78bf
00000100: e07c a23f 2d29 eabe fd73 09c0 f4ed 753f
00000110: 0daf 0b3f b1f9 7fbf f7a8 793d df65 d5bf
00000120: a49b 41bf 1afa 9dbf 6815 50bf e5f7 c5bd
00000130: 294a 683f b89c 263d 95b7 0bbe c591 923f
00000140: f20d f13e c070 24bf 842b c1bf 7024 603f
00000150: abd4 f83e 38cf 21bf 6e87 e2bd 9e0d a7bf
00000160: 2db3 c73e 340c a7bf d6d8 adbf 5b26 a83c
00000170: adb2 fc3f 570b cbbd 16d9 00bf ddc8 af3e
00000180: 3dba 41bf e3d6 f6be 9ae7 073e 43fd 763f
00000190: 3d6d c1bf d00c 93be cc19 a6be b14a 86be
000001a0: d408 6a3e 141d 193f bef6 23bf 251b 5040
000001b0: 2be2 703e 002c 3fbf 90f0 79be f7e5 e5bd
000001c0: c7e3 883e 04f9 113e 455f af3f 5689 f63e
000001d0: 148e 50be 14ae 94be 0bd1 ba3f 46a9 2d3f
000001e0: 22a3 253f 9315 a53f 1347 973d c5fb 8b3e
000001f0: f394 4abf 244d 0a3e dba6 8abf b2a8 99bf
00000200: ef7a a03e 4696 223f 36d7 f8bf e2c0 3abf
00000210: 302f 24be 3c8b a83e e572 853f f9db cebf
00000220: c88b 153f f947 a23f 3e7a cc3f 711a 683f
00000230: b410 22bf f1cf 693f dd95 3a3f cd2b 58bf
00000240: bc3d 833f 5fa4 ae3e 74a2 cabf df00 50bd
00000250: ce4f b03f 851d fd3e b811 743f 84ba c2bf
00000260: 2d9b 12bf bacc 8d3f a4a0 323f c405 593e
00000270: 113d dd3e e2ff 63be 7674 0dbe 5f57 d13f
00000280: 8463 1f3e 992c 1b3f e997 07bf 90c5 db3e
00000290: de4d 6abe 74ab 60bf 570b f63d ac8c f43f
000002a0: 7697 3340 7c49 e83e 8108 f83c 55cc d63f
000002b0: 0a03 dd3f 9c96 cebe f339 8cbf b4f0 d13e
000002c0: ae71 793f ac7b b5bf 84b3 7f3e 80e2 353f
000002d0: 5fc4 b2bf 482a 0c3e cb1d 973f 38f3 19be
000002e0: c76c d5bf fcc6 3abf fca5 79bf 2a2d d8bf
000002f0: edef b13f 679d d63e dc1c 913e c727 e03f
00000300: 0c22 68bf 1b03 7ebf 555b e33f 3a4c bc3f
00000310: f5f4 9abf 4e0c e43f 504d 2f3e edbf 0ebe
00000320: 8663 a7bf dd0f 3abf 8e65 6ebe 90a6 563e
00000330: 95a2 4d3e 7b96 f2bf 877b fcbe e11b 7a3e
00000340: bc1b 19bf ded3 b83e 235c 143f eb72 9ebf
00000350: 891a 39be 7082 e2be f76a 0b40 d959 013f
00000360: e360 323f af76 463e b75b fdbe d16a bfbf
00000370: f77d 9bbd 7bd3 203f 0293 a03f 00b4 89be
00000380: ba17 32be 0f0e 6bbf 4ae8 4f3f 5e85 8f3f
00000390: edf2 44bf 2852 1d3f 0252 e0be 23f0 9dbd
000003a0: 70a7 e4bd 6dc8 a3bd 1b1c bc3e e32e b93e
000003b0: a56f 34c0 d15d 7f3f 9caa a03f 2fec 18bf
000003c0: b474 8dbf 183c f3bf 7a4e 3fbf 8ccf 26bf
000003d0: d937 8c3f dd01 9c3f 1f5a ab3d fbcb d23f
000003e0: a1d4 97bf 0a92 9abe 21d6 a83e 4eb9 ce3e
000003f0: 9bb9 c83f 86a3 0240 c58e ae3e 230b 553f
0.958011 -0.9702958 0.87828296 -0.539948 0.90994984 -2.5504262 0.86480784 0.57924753
1.1443682 -0.031459108 1.2221614 -1.0383232 1.4807937 -1.762361 -1.4263669 -0.7595661
-1.8939092 1.0388923 1.47372 -0.30107123 1.1273159 0.52145904 2.5649974 1.3555704
-0.59860563 0.17068344 -0.6922365 -0.3802352 -1.0755627 -1.143147 2.5425115 -0.27645776
-1.7748636 -2.997377 0.37657464 0.91370577 -0.7495176 0.20012327 -0.06918859 -0.6269789
-0.93113273 -0.58076125 -0.7405266 0.057386965 0.23204006 -0.70706695 -1.2121196 1.5922793
-0.8258267 0.05214828 -0.47691453 0.4777528 -1.6326388 0.45935437 0.96717215 -0.051311325
-0.60284257 -2.117922 -1.3945298 -2.0123706 0.36774325 0.16309617 0.45960033 -0.9695071
1.2694359 -0.4573454 -2.1477044 0.9606621 0.5456398 -0.99990374 0.060952153 -1.6671714
-0.75628114 -1.234195 -0.81282663 -0.09666423 0.9073816 0.040676802 -0.1364425 1.1450735
0.47080952 -0.6423454 -1.5091405 0.875556 0.48599753 -0.63206816 -0.110609874 -1.3051031
0.39003888 -1.3050599 -1.3581798 0.020526102 1.9742028 -0.09914272 -0.50331247 0.34332934
-0.756748 -0.4821082 0.13271943 0.96480197 -1.5111462 -0.28720713 -0.32441556 -0.2622886
0.2285493 0.59809995 -0.64048374 3.2516568 0.23523776 -0.74676514 -0.24408174 -0.11225503
0.2673628 0.14255148 1.3700949 0.48151654 -0.20366699 -0.2903906 1.4595045 0.67836416
0.64702046 1.2897209 0.07386603 0.27340522 -0.7913353 0.1350599 -1.083217 -1.2004607
0.3134379 0.6351055 -1.9440677 -0.72950566 -0.16033626 0.32918727 1.0425688 -1.616088
0.58416414 1.2678214 1.5974805 0.90665346 -0.63306737 0.9133292 0.72884923 -0.84441835
1.0253215 0.3410978 -1.5830827 -0.05078208 1.3774354 0.49436584 0.95339537 -1.521317
-0.5726803 1.1078103 0.6977637 0.21193606 0.43210652 -0.2226558 -0.13813958 1.6354789
0.15565306 0.60614926 -0.5296617 0.42924166 -0.22881266 -0.87761617 0.12013882 1.910543
2.8061194 0.45368564 0.030277492 1.6781107 1.7266552 -0.4034928 -1.0955185 0.41003954
0.97439086 -1.4178367 0.24970824 0.71048737 -1.3966178 0.13688004 1.1805967 -0.15034187
-1.6673821 -0.72959876 -0.975189 -1.6888783 1.3901345 0.41916963 0.2834233 1.7512139
-0.9067695 -0.9922349 1.7762247 1.4710763 -1.2106005 1.7816255 0.17119336 -0.13940401
-1.3077247 -0.72680455 -0.23280928 0.20961976 0.20081551 -1.8952173 -0.49312994 0.24424697
-0.59807944 0.36099142 0.5795309 -1.237882 -0.18076529 -0.4424014 2.1784036 0.5052772
0.6967909 0.19381212 -0.49484035 -1.4954473 -0.07592385 0.62822694 1.2544863 -0.26895142
-0.17391863 -0.91818327 0.8121382 1.1212575 -0.76933175 0.61453485 -0.43812567 -0.07711818
-0.11164749 -0.079972126 0.36740193 0.36168584 -2.8193142 0.9975253 1.2552066 -0.5973539
-1.105124 -1.9002714 -0.7472912 -0.6516044 1.0954543 1.2188069 0.083667986 1.64685
-1.1861764 -0.30189544 0.32975867 0.4037575 1.5681642 2.0412307 0.340933 0.8322012

weight_ih_l0 f4 [24, 6]
00000000: a50e 413f 89f4 c0be 2675 c8be c124 a3bc
00000010: e2b5 393f 91cd b13e f90c 3f3f baef 883f
00000020: a643 8bbf e6f2 9e3e e749 c33e a06d 50bf
00000030: 0da6 023e ff1d 0abe 4519 4fbf 39de 6abf
00000040: b3e8 febe 5c6c 943e 1534 d93d c051 063f
00000050: 19cd b8be 71dc 0bbf 8726 433f ce02 ffbe
00000060: fbf6 4f3e ad46 0cc0 6e5f 433f d3fa 31bf
00000070: 5b83 cabf 76fb ee3e c752 de3e d6bc e2be
00000080: 2380 e83c 14cf 89be ad96 b1be 1a54 a2bd
00000090: f164 c5bf 1d0e 053d 5e2e 473e 71aa 893f
000000a0: 78f4 80be c92a 953f 3af2 5a3f ca2b 21bd
000000b0: b998 c83e f87d 913e 4468 00be 327d 2b3f
000000c0: 031f 0ebe 5ee1 cd3e ce65 b5be 3d7f c53d
000000d0: 03f5 563e 4bbe 9dbf 736f 9bbe 29dd c2be
000000e0: c613 d23e 7949 a53d a2fe 573e a1af 47bf
000000f0: 0709 33bf 9d0c 873e c04b dc3e 1aab 133f
00000100: b31c 273f c247 e8bd 6b4f c9bd 6d59 ab3e
00000110: f24f 503e 4382 123e 5142 403f 2eed 1bbf
00000120: 1007 d63e 2dfd 41be 4551 853c 6ba1 58bf
00000130: 3d4c cbbe 76ff 763f d82d 653d 8486 903f
00000140: ca37 c53e 1596 d73e 6464 24bf e84b 41bf
00000150: e11d 49be c721 1ebf 271b 1440 92fc 23bf
00000160: d501 803f 2cd6 523f 0186 95bd 9087 de3e
00000170: f0f4 293f b336 2fbf aa2b eabf 4469 873f
00000180: b77c e83f a5e6 dabf d233 0f3f a9d6 56bf
00000190: c736 193d a2b9 44be 28ae 063f 42f6 033f
000001a0: a66c 233f 5e75 12bf 023b 143f d04c 8bbf
000001b0: ac66 16bf 85b3 5d3f 70b9 093f 5b97 a53f
000001c0: 3a66 be3e 2899 793f 2688 e13e 081e 69bf
000001d0: 9fd4 f83e e83a 513e 83e4 df3e 467b d83d
000001e0: 0941 aebe 4026 9abf cb63 fb3e 7c52 fbbf
000001f0: 5136 d43d 002d 3b3e a644 7e3e f21a 2abf
00000200: 4091 123f 34f5 4e3f ce39 d73e 6bd2 693e
00000210: f8e5 c5bf 4466 95bf d108 b33d 8e8a 61bf
00000220: 262a 01c0 292d f13e 2d90 d03e cfc5 32be
00000230: d853 5bbe d33e f1be b8e1 9f3f 5814 2dbf
0.7541297 -0.37686566 -0.39151877 -0.019914987 0.72543156 0.34727147 0.7462917 1.0698159
-1.088002 0.31044692 0.3814232 -0.81417274 0.12758656 -0.13488005 -0.80897933 -0.91745335
-0.4978691 0.28988922 0.10605637 0.5246849 -0.36093977 -0.5463324 0.76230663 -0.49806827
0.2030906 -2.1918137 0.7631749 -0.6952335 -1.5821337 0.46676224 0.4342253 -0.44284695
0.028381413 -0.269158 -0.3468527 -0.07926197 -1.542143 0.032484163 0.19451281 1.075514
-0.25186515 1.1653682 0.8552586 -0.0393484 0.39179018 0.2841642 -0.12539774 0.6698791
-0.13879018 0.40211004 -0.35429233 0.096434094 0.20991902 -1.2323698 -0.30358467 -0.38059357
0.4103071 0.080706544 0.21093228 -0.78002363 -0.6993565 0.2637681 0.43026543 0.57682955
0.65278167 -0.11341812 -0.09829601 0.33466664 0.20342997 0.14307503 0.7510119 -0.6090878
0.41802263 -0.18944235 0.016274104 -0.84621304 -0.39706603 0.9648355 0.055951923 1.1291051
0.38519126 0.4210669 -0.64215684 -0.7550645 -0.19640304 -0.6177029 2.3141572 -0.64057267
1.0000559 0.8235805 -0.0730095 0.434628 0.6638937 -0.6844284 -1.8294575 1.0579
1.816306 -1.7101637 0.55938447 -0.83921295 0.037405755 -0.19211438 0.5260949 0.51547635
0.6383766 -0.5721034 0.5790254 -1.0882816 -0.58750415 0.8660205 0.5379858 1.2936815
0.37187368 0.9749932 0.44049186 -0.9106145 0.48599717 0.20432627 0.43729028 0.105703875
-0.34033993 -1.2042923 0.49099573 -1.9634547 0.103619225 0.18278885 0.24830875 -0.66447365
0.57252884 0.808429 0.4203629 0.22834174 -1.5460806 -1.1671834 0.08741916 -0.8810204
-2.0181975 0.47104767 0.40734997 -0.1745827 -0.21418703 -0.47118244 1.2490759 -0.6760917

weight_hh_l0 f4 [24, 6]
00000000: 61df b23e 402e 8a3c b633 223f aa31 7abe
00000010: ff17 453e 4d99 82be 7a74 90bf dd12 393e
00000020: cca0 163e 6ef7 793f f44c d53e 0e8d e6bc
00000030: 3a94 193e c070 e53e c2fe 4e3c 84db e4be
00000040: e508 0d3f 3e81 323d 1141 d6bd 0335 a73e
00000050: 329c c9be 4149 70be 3815 0bbe 725d 69bf
00000060: 672f 463f 3889 2b3f 073d e6be e0aa 0bbf
00000070: 7769 94bd 7bc5 adbe 2d28 183e 49f0 23be
00000080: 8a34 cd3e e084 94bd 36aa 943e c876 a7be
00000090: c4b2 52be 7c4c 013f f3b5 eebd f544 8bbe
000000a0: 3ea1 ba3f 0958 8c3e cb54 073d 7728 8cbe
000000b0: 93c8 77bf 9b8d 96bc 7e74 963f a7a9 ec3d
000000c0: 9073 553d 3283 f4be ea3b 983e 3de9 613e
000000d0: 9a37 a2be 1d80 e23d 85ab 0f3f 6100 a33e
000000e0: e140 68bf e2af 2a3e 3992 533e 8bfd 50be
000000f0: 1813 34bf 0f7b f0be bc58 813f 8dcf 263f
00000100: 5ebb ef3e 3df2 8f3d 2f01 afbc 4473 2abe
00000110: baa8 37be 95c4 193f 059c 9f3e e562 9bbf
00000120: 12ad 9a3f c29b cbbf fcb8 91bf 724f e23f
00000130: f2c4 c4bf 1709 5ebf 87d5 2640 025e 4e3f
00000140: ef7f 38bf ac30 83bf a11c 69be 943f b43f
00000150: a0c5 7d3f 9716 d43c 3720 3abe c079 453e
00000160: 23a9 b7bc 3ed7 5e3f 8723 04be 1d8f cf3e
00000170: 8604 9ebf 7360 f73e 8a84 473f 27e7 d0be
00000180: a8f5 94bf b10d bdbd f8a2 ab3e 38c1 673f
00000190: 134e 1b3f 7b84 8e3f d15d 883f 8061 c03d
000001a0: 7ffe 093f a642 8dbe 6beb 5ebf 79cb 973f
000001b0: fc66 84bf 3c83 57bd 5590 283f 29a9 043f
000001c0: 377f 64be 2e16 31bc 9fdd 493e 3208 18bf
000001d0: 7b7a 58bf eb32 a13e 79fd 9c3f 91b4 69bf
000001e0: 6d9f 0e3f b3ee 05bf bae8 293f a927 463d
000001f0: c2d9 63be dfe8 2c3e 2584 b2bf c895 7e3f
00000200: bee3 48bf 5b89 a0be 8d86 e03e 957f 24bf
00000210: e61f 5dbf 2be3 14bf 3759 b23e 5243 a13e
00000220: 7740 00bf 860d b5bd 375f 57bf 4692 f73e
00000230: 14cc 24bd 24f8 86be 2ad1 3e3f d963 d2be
0.3493605 0.016867757 0.63360155 -0.24433008 0.19247435 -0.25507584 -1.1285546 0.18073602
0.14709777 0.9764317 0.41660273 -0.028143432 0.1499795 0.44812584 0.012633981 -0.44698727
0.55091697 0.043580286 -0.10461629 0.32657632 -0.3937698 -0.23465444 -0.13582313 -0.9115821
0.7741608 0.67006254 -0.44968435 -0.5455761 -0.07246678 -0.33939728 0.14859076 -0.1600963
0.40079147 -0.072519064 0.2903611 -0.3270781 -0.20576006 0.5050733 -0.11655798 -0.27201048
1.4580457 0.27410915 0.03303985 -0.27374622 -0.96790427 -0.01837807 1.17543 0.11555796
0.052112162 -0.47756344 0.2973321 0.2206163 -0.31683046 0.11059592 0.56121093 0.31836227
-0.90724 0.16668656 0.20661248 -0.20409219 -0.70341635 -0.46968886 1.0105205 0.6516045
0.46822637 0.07028625 -0.02136287 -0.16645533 -0.17935458 0.60065585 0.3117372 -1.2139555
1.2084067 -1.5906909 -1.1384578 1.7680495 -1.5372603 -0.8673262 2.6067827 0.80612195
-0.7207021 -1.0249228 -0.22764827 1.4081903 0.99129677 0.025889678 -0.18176351 0.19284725
-0.022419518 0.87047184 -0.12904178 0.40538874 -1.234513 0.48315772 0.77936614 -0.40801355
-1.1637468 -0.09231127 0.33522773 0.90529203 0.60666007 1.113418 1.065363 0.09393597
0.53903955 -0.2758991 -0.8707797 1.185897 -1.0343928 -0.05261539 0.65845233 0.5182062
-0.22314154 -0.010808511 0.19713448 -0.59387505 -0.8456189 0.3148416 1.2264854 -0.9129115
0.55712014 -0.5231735 0.6637074 0.048377667 -0.22251037 0.16885708 -1.3946577 0.994473
-0.78472507 -0.31354794 0.43852654 -0.64257175 -0.863768 -0.5815913 0.3483369 0.31496674
-0.50098366 -0.0884047 -0.8412966 0.48353785 -0.040233687 -0.2636119 0.7453791 -0.41091803

bias_ih_l0 f4 [24]
00000000: 6f42 803f dc2a 263f b88a 963f 4ea3 933f
00000010: f0db d93e 217f 6e3f eb93 8e3f 04ce 4f3e
00000020: f346 f9be 2e7c 6e3d ccc5 f4bd 1405 603f
00000030: 28c0 edbf 9c4b 413f 38c8 e7be 7d02 993e
00000040: e7c3 663e 2fab 68be 316c bc3f 50d7 8d3f
00000050: c8f5 293e 61fa 193f ebeb 003f baf9 683f
1.0020274 0.6490915 1.1761084 1.1534212 0.42550611 0.93162733 1.1138891 0.20293432
-0.48686942 0.058223896 -0.11951789 0.8750775 -1.8574266 0.75505996 -0.45269942 0.2988471
0.22535668 -0.22721551 1.4720517 1.1081333 0.16597664 0.6014767 0.5035998 0.9100605

bias_hh_l0 f4 [24]
00000000: 62ad 723f 86de 4d3f 00c1 293f 07bb 173f
00000010: 7108 023f 73a2 433f 9ea2 723f c285 533e
00000020: 3e31 7cbf b47c 35be d9f0 bd3b 4128 4f3f
00000030: c2f1 b1bf 6a1c c53e 7ea3 b1be 36d6 59be
00000040: e65a 523e d88f 233e 29f1 a13f ba0d c13f
00000050: 3272 f33e 33cf 743f 583a 7d3f 379d 663f
0.9479581 0.8041767 0.6631012 0.59269756 0.5079413 0.7641975 0.94779384 0.20656493
-0.9851264 -0.17723352 0.0057965335 0.809208 -1.3901904 0.3849824 -0.34695047 -0.21273121
0.20542488 0.15972841 1.2651721 1.5082314 0.47548062 0.9562866 0.9891715 0.9008364

weight f4 [4, 6]
00000000: 7066 3bc0 81bd 11c0 97c5 8dc0 4956 cabf
00000010: 386b 9540 ef8c 04c0 89aa 37bf adab c33f
00000020: 5e29 0040 fc55 14c0 f249 063e c12f 8740
00000030: 9fc6 2fbe abe0 8e40 a92f 0d40 260d 6940
00000040: 93a2 b5bf d088 a2bf 2790 7840 a99e 5fc0
00000050: 07da 9f3e 5a23 16be 0b0f 71c0 4d72 32bf
-2.9281273 -2.2771914 -4.43037 -1.5807582 4.669338 -2.071102 -0.7174459 1.5286766
2.0025249 -2.317748 0.13114145 4.2245793 -0.17165612 4.4649253 2.206034 3.6414275
-1.4190239 -1.2698002 3.8837984 -3.4940588 0.3122103 -0.14661923 -3.7665431 -0.6970566

bias f4 [4]
00000000: 2642 24be 244f 9a3f bdce 85bf f173 763e
-0.16040859 1.2055402 -1.0453717 0.24067666
